model/num_detect/model/CNN_MNIST_model.pth.tar (torch, 35927 bytes, 6 tensors)

conv1.weight f4 [10, 1, 5, 5]
0	0x3d769385	0.06019928
1	0x3eb9519d	0.36195078
2	0x3e80446f	0.2505221
3	0x3c67f7ee	0.014158232
4	0xbc4ab997	-0.01237335
5	0x3ea7e2f0	0.32790327
6	0x3ed39074	0.41321146
7	0x3e05e36e	0.13075039
8	0x3e3236e3	0.1740375
9	0x3e2695c0	0.16268063
10	0xbe9f6728	-0.3113339
11	0xbe426209	-0.1898271
12	0x3e9417b3	0.2892433
13	0x3e3a8502	0.18214801
14	0x3e952085	0.29126373
15	0xbe3881c1	-0.18018247
16	0xbe92e7ff	-0.28692624
17	0xbe5b80e2	-0.21435884
18	0xbd74e0e0	-0.05978477
19	0x3ce84ee9	0.02835794
20	0xbe6ec5ae	-0.23317596
21	0xbe4ee17e	-0.20203206
22	0xbe0c9f4d	-0.13732643
23	0xbe900331	-0.28127435
24	0xbe3f4cbd	-0.18681617
25	0x3e76d75e	0.24105594
26	0x3ea92aa0	0.33040333
27	0x3ec29200	0.38002014
28	0x3ea7065a	0.32622033
29	0x3e9e8659	0.30961874
30	0x3d87463c	0.06605193
31	0x3f176abe	0.5914725
32	0x3ee26cd7	0.44223663
33	0x3e85c80b	0.26129183
34	0xbcf8edd7	-0.030386848
35	0x3ea11fd5	0.31469598
36	0x3e864129	0.26221588
37	0xbd934700	-0.071912766
38	0xbd80981f	-0.06279015
39	0x3e6f0513	0.2334178
40	0xbdada437	-0.08478587
41	0xbdd9e2f8	-0.10638994
42	0x3e36804e	0.17822382
43	0x3e3bc00b	0.18334977
44	0xbcdd9eef	-0.027053325
45	0xbe2f0708	-0.17092526
46	0xbe22ae16	-0.15886721
47	0x3ddb5f7d	0.10711572
48	0x3eb41b0e	0.3517689
49	0x3e7c368b	0.24630181
50	0x3e9d6360	0.3073988
51	0x3ed5f5f0	0.41789198
52	0x3f039685	0.5140155
53	0x3de0b6a1	0.10972334
54	0x3ed45c7c	0.4147681
55	0x3e856373	0.26052436
56	0x3e344738	0.17605293
57	0x3e976e3c	0.2957629
58	0x3e5540a1	0.20825435
59	0xbdb2e84d	-0.08735714
60	0xbe22b3b6	-0.15888867
61	0xbe3162a7	-0.17322789
62	0xbc6efa81	-0.014586092
63	0x3c9a7f3c	0.018859498
64	0xbbde9c54	-0.006793538
65	0xbec14ad4	-0.37752402
66	0xbea5f367	-0.32412264
67	0xbe709bab	-0.23496883
68	0xbec6fed5	-0.38866296
69	0x3d218486	0.039433025
70	0xbe5df61a	-0.21675912
71	0xbe75b6ea	-0.23995557
72	0xbe9d6dc3	-0.30747804
73	0xbdbd082a	-0.09230073
74	0xbdf17d0f	-0.11791431
75	0xbe401d91	-0.18761279
76	0xbd442d65	-0.047894854
77	0xbe2b97cd	-0.16757126
78	0x3d28e09e	0.041229837
79	0x3e4ba5c0	0.19887447
80	0xbd658790	-0.056037486
81	0x3bf56e0c	0.0074899253
82	0x3b774149	0.0037728122
83	0xbe3c6065	-0.18396147
84	0x3e8e92c1	0.2784634
85	0xbdac23fa	-0.084052995
86	0xbe6982a3	-0.2280374
87	0xbe3bf20c	-0.18354052
88	0x3e08a4c7	0.13344108
89	0x3d4584e8	0.048222452
90	0xbe1726ef	-0.14760946
91	0x3ca8b3d2	0.020593558
92	0xbe5f51dc	-0.2180857
93	0x3c037d9e	0.008025555
94	0x3e831826	0.2560436
95	0x3d71243e	0.058872454
96	0xbdd2ebf1	-0.102989085
97	0xbc59aacf	-0.013285353
98	0x3d3abfbd	0.045593012
99	0x3e09c11d	0.13452573
100	0x3d2f1cff	0.042752262
101	0xbe3c90be	-0.1841459
102	0xbdb4beb3	-0.088254355
103	0x3e35ad0a	0.1774179
104	0x3eccfd70	0.40037107
105	0xbeb173df	-0.34658715
106	0xbea5f580	-0.32413864
107	0xbe1890b3	-0.14898948
108	0x3ec4cde4	0.38438332
109	0x3eb91569	0.36149147
110	0xbe7aa4cf	-0.24476932
111	0xbe0a3f2f	-0.13500665
112	0xbcfabf0a	-0.030608673
113	0x3e6b911a	0.2300457
114	0x3ebfb2a7	0.37440988
115	0xbe4abdc6	-0.19798955
116	0x3d715a13	0.058923792
117	0x3d1c92c7	0.038225915
118	0x3d3b2150	0.045686066
119	0x3dc6450e	0.0968114
120	0x3d57dd76	0.052701436
121	0xbe1ab8b6	-0.15109524
122	0x3d0626a4	0.032751694
123	0xbac599cd	-0.0015075743
124	0x3e2a8e43	0.16655831
125	0x3ca19420	0.019723952
126	0x3d99406c	0.074829906
127	0x3e808163	0.25098714
128	0xbe7e5e0f	-0.24840568
129	0xbe3d635c	-0.18494934
130	0xbe68628f	-0.22693847
131	0x3e098df3	0.13433056
132	0x3e527a7d	0.20554538
133	0xbb8b6ab9	-0.0042546657
134	0xbe0d45a0	-0.13796091
135	0xbe2771da	-0.16352025
136	0xbd08b9bd	-0.03338026
137	0x3ec03262	0.3753844
138	0x3dd388bb	0.10328814
139	0xbe339372	-0.17536715
140	0xbe1237fd	-0.1427917
141	0xbe7dcd67	-0.24785386
142	0x3d26f36a	0.04075948
143	0x3ec02b25	0.37532917
144	0xbd5c39fc	-0.053766236
145	0x3dce55cd	0.10074959
146	0xbe27db68	-0.1639229
147	0xbdc6e565	-0.09711722
148	0x3cd8878b	0.02643182
149	0x3e27b69b	0.16378252
150	0xbe7f4001	-0.2492676
151	0xbde5217c	-0.11188027
152	0x3dd9348b	0.10605725
153	0xbe0aea99	-0.13566054
154	0x3e29c89b	0.16580431
155	0xbe2d1653	-0.16903047
156	0xbdfb7f5f	-0.122801535
157	0xbdd77a6d	-0.10521398
158	0x3e4ebf3f	0.20190142
159	0x3e452b9c	0.19254917
160	0xbe717ae3	-0.23582034
161	0xbd977a9b	-0.07396432
162	0xbd67f2b8	-0.05662796
163	0x3e7968ce	0.24356386
164	0x3e8ad735	0.27117315
165	0xbd2ddc76	-0.042446576
166	0xbd0bf817	-0.034172144
167	0x3d84c777	0.064833574
168	0x3ec9dc10	0.39425707
169	0x3e5f9e1b	0.21837656
170	0xbd3c73c9	-0.04600886
171	0x3e613859	0.21994151
172	0x3ea93c71	0.33053926
173	0x3e8e4b46	0.27791804
174	0x3e0be48b	0.13661401
175	0xbcb0b031	-0.02156839
176	0x3de665be	0.112498745
177	0x3e6efe94	0.23339301
178	0xbe3e3cbe	-0.18577859
179	0x3ac00a49	0.0014651503
180	0x3e28983b	0.16464321
181	0x3ebcbc3c	0.3686236
182	0x3e51fd9e	0.20506904
183	0xbd9a1c48	-0.075249255
184	0xbed96ce3	-0.42465886
185	0x3ec480f4	0.38379633
186	0x3e7ce2fb	0.24695961
187	0xbdefd358	-0.117102325
188	0xbe29060d	-0.16506214
189	0xbe6d95b2	-0.23201635
190	0x3ec665e2	0.38749605
191	0x3e4b0290	0.19825196
192	0x3e0372d3	0.1283677
193	0x3d4a802d	0.049438644
194	0x3db9823f	0.090580456
195	0x3e985862	0.2975493
196	0x3d69a5aa	0.057042755
197	0xbe6b09f6	-0.22953019
198	0xbe9f91cd	-0.31165925
199	0xbbabf3d1	-0.005247571
200	0x3d33d4ab	0.043903988
201	0x3d6cc6fa	0.057806946
202	0xbe0cf5da	-0.1376566
203	0x3e68032a	0.22657457
204	0xbe0808c9	-0.13284601
205	0xbe38b936	-0.18039402
206	0x3e270935	0.16312106
207	0xbd9ff569	-0.0781048
208	0x3de78e41	0.1130643
209	0x3e12218c	0.1427061
210	0x3a16eecd	0.000575763
211	0xbe0c4d80	-0.13701439
212	0x3d0ea2af	0.034823116
213	0x3b986bb1	0.0046515097
214	0xbdf91a0f	-0.121631734
215	0x3d71ba28	0.059015423
216	0x3dccdd51	0.1000315
217	0x3e00bbb1	0.12571599
218	0xbe568976	-0.20950875
219	0xbd87a585	-0.06623367
220	0xbc8b617a	-0.017014254
221	0xbe4174ad	-0.18892165
222	0xbc9a4ea2	-0.018836323
223	0x3dea0278	0.11426252
224	0x3e03a737	0.12856756
225	0x3d4d9ab0	0.05019635
226	0x3e06ec46	0.13176069
227	0x3e61575d	0.22005983
228	0xbe83a8bf	-0.2571468
229	0xbd8bd040	-0.0682683
230	0xbd8a8f75	-0.067656435
231	0x3c880ff8	0.016609177
232	0x3df21e02	0.1182213
233	0x3e122574	0.142721
234	0xbd521633	-0.051290702
235	0xbd9bc77f	-0.0760641
236	0xbe20e2df	-0.15711544
237	0x3e1bd146	0.1521655
238	0x3e93c9c3	0.2886487
239	0x3e965035	0.29358068
240	0x3e14274b	0.14468114
241	0xbdd61135	-0.10452501
242	0xbe06fbd4	-0.13182002
243	0xbe5cd134	-0.2156418
244	0xbd9fc60a	-0.07801445
245	0x3c1499ab	0.00906984
246	0x3d8e54ca	0.06949766
247	0xbdb03ca2	-0.08605315
248	0x3d031862	0.032005675
249	0xbdf9bd6a	-0.12194331

conv1.bias f4 [10]
0	0x3e1a07d9	0.15042056
1	0xbc367cdd	-0.011138168
2	0x3da3c997	0.079974346
3	0xbe1d2336	-0.15345463
4	0xbe2df170	-0.16986632
5	0xbd0ab3b7	-0.033862796
6	0x3d3e99ce	0.0465334
7	0x3e1b5056	0.15167364
8	0xbd55c73c	-0.052191958
9	0x3dd74842	0.10511829

conv2.weight f4 [20, 10, 5, 5]
0	0x3d61d565	0.05513515
1	0x3dddba2c	0.10826525
2	0x3dd8402e	0.10559116
3	0x3e211ed6	0.15734419
4	0x3d80e6ab	0.062939964
5	0xbcdf851b	-0.02728515
6	0x3d2d969a	0.042379953
7	0xbca21260	-0.019784153
8	0xbd8a8cf5	-0.06765167
9	0xbe01444a	-0.12623706
10	0x3c0f1680	0.008733392
11	0x3cf532f2	0.02993152
12	0xbd1cb3d0	-0.03825742
13	0x3d4d7b07	0.050166156
14	0x3d8c090c	0.06837663
15	0xbdc8ea84	-0.09810355
16	0xbd049f6c	-0.0323786
17	0x3d8ba5e3	0.0681875
18	0x3d0b15c9	0.033956323
19	0x3d81be2e	0.06335102
20	0xbc2f0238	-0.010681681
21	0xbc97f0d2	-0.01854745
22	0xbc9dddc9	-0.019270794
23	0x3c74b6cb	0.014936159
24	0x3b863f14	0.004096875
25	0xbd153fe1	-0.036437873
26	0xbc338098	-0.010955952
27	0x3d8fbe27	0.070186906
28	0x3e3268f4	0.17422849
29	0x3d8871b0	0.06662309
30	0xbd5fd13e	-0.05464291
31	0xbd59f1ef	-0.05320924
32	0xbd990c4e	-0.0747305
33	0xbe1fadc4	-0.1559363
34	0xbe54ddf8	-0.207878
35	0xbdaff529	-0.085916825
36	0x3d448d20	0.04798615
37	0x3cf816e2	0.030284349
38	0xbd83cfd1	-0.06436122
39	0x3d8693cc	0.06571159
40	0x3d4f2076	0.050568067
41	0xbc954279	-0.018220173
42	0x3d19968d	0.037497092
43	0x3d2f484f	0.04279357
44	0x3d49a130	0.049225986
45	0x3d148e4e	0.036268525
46	0x3c96350a	0.018335838
47	0x3d3bb475	0.045826394
48	0xbd0d992d	-0.034569908
49	0x3c44b2a8	0.012005486
50	0x3d93042e	0.071785316
51	0x3d7f5094	0.062332705
52	0x3e427055	0.18988164
53	0x3e6dea90	0.2323401
54	0x3e2c80b4	0.16845971
55	0x3dbaa69b	0.09113809
56	0x3d929381	0.071570404
57	0x3c24dc71	0.010062323
58	0xbc79ff43	-0.015258613
59	0xbd80b082	-0.06283666
60	0xbd809e80	-0.062802315
61	0xbd9728bb	-0.073808156
62	0xbde18f55	-0.110136665
63	0xbcd65bce	-0.026166823
64	0xba588fe0	-0.0008261185
65	0xbd7d6a3d	-0.061868895
66	0x3ccfaa7e	0.025349852
67	0x3db8e037	0.090271406
68	0x3db28da6	0.087184235
69	0x3d974662	0.07386471
70	0x3d230585	0.039800186
71	0x3c9b6499	0.018968867
72	0x3cbb595b	0.022869756
73	0x3d047172	0.032334752
74	0xbb305e5b	-0.002691171
75	0x3d025ec6	0.031828664
76	0x3b9a5085	0.0047093057
77	0x3ce2b6ed	0.027675116
78	0x3ac56da2	0.001506258
79	0xbd1f6e2d	-0.03892343
80	0x3d883b3e	0.066519246
81	0xbce1dc65	-0.027570913
82	0xbc23e4e5	-0.010003303
83	0xbd221232	-0.039568134
84	0xbc6c3db6	-0.01441901
85	0x3d4fc232	0.05072231
86	0xbc9dfde3	-0.019286102
87	0xbb324bc1	-0.0027205797
88	0xbd213454	-0.039356545
89	0x3b1935fc	0.0023378124
90	0xbd346708	-0.04404357
91	0x3d014115	0.031556208
92	0x3c98c899	0.01865034
93	0xbc0dfcfa	-0.008666271
94	0xbd7d0c18	-0.06177911
95	0x3d289e4b	0.041166585
96	0x3a53c5de	0.0008078496
97	0x3bea22f2	0.007145279
98	0xbd3975af	-0.045278247
99	0x3ced9415	0.029001275
100	0xbca35af7	-0.019940836
101	0xbd86a657	-0.065746956
102	0x3d84dc0a	0.064872816
103	0xbd916bc9	-0.071006365
104	0xbca5122e	-0.02015027
105	0xbd9975af	-0.074931495
106	0xbdda2662	-0.10651852
107	0xbddf5cb1	-0.10906351
108	0xbdfe64e2	-0.124215856
109	0xbd655574	-0.055989698
110	0xbd0d335a	-0.0344728
111	0xbd164dae	-0.036695175
112	0xbd00c2e2	-0.031435855
113	0x3bb9c260	0.0056689233
114	0xbda9d690	-0.08292878
115	0x3cc32b7d	0.023824448
116	0xbd4217f3	-0.04738612
117	0x3c02ecfd	0.007991073
118	0xbd8e3f89	-0.06945712
119	0xbd98bb68	-0.0745762
120	0xbaef01cb	-0.0018234787
121	0xbcf39b83	-0.02973724
122	0xbd48ef53	-0.049056362
123	0x3cdf1e82	0.027236227
124	0xbc81e6ee	-0.015857186
125	0x3d721a34	0.05910702
126	0xbca0e330	-0.019639581
127	0x3d1e4d02	0.03864766
128	0xbd81cdf6	-0.06338112
129	0xbdca47ca	-0.09876974
130	0x3d8621dd	0.06549428
131	0x3c8fbc21	0.017545762
132	0x3c80fe06	0.015746128
133	0xbd4d8c4e	-0.050182633
134	0xbd43acff	-0.047772404
135	0xb9dc8e92	-0.00042067893
136	0x3c3def98	0.011592768
137	0xbd047dd0	-0.032346547
138	0xbdb55a9b	-0.08855172
139	0xbca6af6c	-0.02034732
140	0x3da69c37	0.08135264
141	0x3d9e0a08	0.07716757
142	0x3d01a2bf	0.031649347
143	0xbc4a87c9	-0.012361475
144	0xbd6640d6	-0.056214176
145	0x3c427596	0.011868855
146	0x3d896799	0.06709213
147	0xbca3b11d	-0.019981915
148	0x3c5cd76c	0.013479095
149	0x3c37fcee	0.011229737
150	0xbcde733e	-0.027154561
151	0x3c64a3bc	0.013955053
152	0xbc0caf75	-0.008586754
153	0xbc3544db	-0.01106378
154	0xbc62dd88	-0.0138467625
155	0x3d8cfeb9	0.06884522
156	0xbd097068	-0.033554465
157	0xbd975fb5	-0.073913015
158	0x3d8cc8a1	0.068742044
159	0x3dabc8fb	0.08387943
160	0xbd31b93b	-0.04338954
161	0xbbbbf4e3	-0.00573598
162	0x3d70d855	0.05880006
163	0xbb084584	-0.0020793388
164	0xbcb78cca	-0.022406
165	0xbd4262fa	-0.047457673
166	0x3d53e85a	0.05173526
167	0xbcfcf1c7	-0.030877007
168	0xb9a5fa73	-0.00031657852
169	0xbcbe0b97	-0.023198886
170	0xbcaa7edd	-0.020812446
171	0x3d05db4f	0.032679852
172	0xbbc37871	-0.0059652855
173	0x3cad48af	0.021152822
174	0xbcc1b6bd	-0.023646707
175	0xbd01d649	-0.0316985
176	0xbd46e546	-0.048558496
177	0x3d2afe18	0.04174623
178	0xbd185523	-0.037190568
179	0xbb1f4ddb	-0.002430788
180	0xbb193894	-0.002337967
181	0xbd5c2941	-0.05375028
182	0x3c8821b5	0.016617635
183	0xbdab052f	-0.08350598
184	0xbc424348	-0.011856861
185	0xbd45d9a7	-0.048303273
186	0x3d65966b	0.056051653
187	0xbd461cda	-0.04836736
188	0x3c0307c8	0.007997461
189	0x3d60d5a0	0.05489123
190	0xbd034393	-0.032046866
191	0x3d17245c	0.03689991
192	0x3978b440	0.00023718271
193	0x3d99fd7b	0.07519051
194	0xbd232fb5	-0.03984042
195	0x3dbb9e5f	0.09161066
196	0x3aea0abb	0.0017855981
197	0x3a082131	0.0005192934
198	0x3cdea81f	0.027179776
199	0x3c726ded	0.014796716
200	0xbd2abe26	-0.041685246
201	0x3d759c1d	0.059963334
202	0xbbc67594	-0.006056497
203	0xbd13e74b	-0.03610925
204	0x3d87cd29	0.06630928
205	0x3d5e9379	0.05433986
206	0xbd365a65	-0.0445198
207	0xbc5e46f5	-0.013566722
208	0xbca2cd72	-0.019873355
209	0x3d509796	0.050925814
210	0x3d0500af	0.032471355
211	0x3cfbfc15	0.03075985
212	0x3cda9aff	0.026685236
213	0x3d764627	0.060125496
214	0xbd6a4ad7	-0.05720028
215	0x3d337c93	0.043819975
216	0xbcd0bd78	-0.02548097
217	0x3d01c183	0.031678688
218	0x3cebc5fb	0.028780928
219	0xbd5c6991	-0.053811613
220	0x3c162b04	0.009165529
221	0xbd45ea70	-0.04831928
222	0xbb57f1aa	-0.003295044
223	0xbc69e6a5	-0.014276181
224	0x3c54b754	0.012983162
225	0xbd139e9b	-0.03603993
226	0x3bdcaae5	0.0067342394
227	0x3d617c68	0.055050284
228	0x3d930964	0.071795255
229	0x3d63da99	0.055628393
230	0xbcbfa951	-0.023396166
231	0xbc1ece3b	-0.009692724
232	0x3d14cdd0	0.03632909
233	0xbc91c5b5	-0.01779447
234	0x3b9e1202	0.004823924
235	0xbc029603	-0.007970336
236	0x3cb0c23b	0.021576991
237	0x3cbaa48f	0.022783546
238	0xbd06924b	-0.03285436
239	0xbce55618	-0.027995154
240	0x3d22fe25	0.039793152
241	0x3d313317	0.043261614
242	0x3db42b0c	0.08797273
243	0x3d5de027	0.054168846
244	0x3d78dcff	0.060757633
245	0xbad1da5e	-0.0016010513
246	0x3cfa20c7	0.030533208
247	0x3d9c64bf	0.07636403
248	0x3cd15748	0.025554314
249	0xbd3bfc52	-0.04589493
250	0x3da03e23	0.07824352
251	0xbb13d6de	-0.002255849
252	0x3d8e319d	0.06943057
253	0x3b9b120c	0.004732376
254	0x3d89a45b	0.067208014
255	0xbd065953	-0.03280003

conv2.bias f4 [20]
0	0xbb9101f9	-0.004425284
1	0xb8971e8a	-7.2059294e-05
2	0x3d0b326d	0.033983637
3	0x3d46299d	0.04837953
4	0xbb730814	-0.0037083672
5	0xbc90ff21	-0.01769978
6	0xbd8f2cae	-0.06990944
7	0xbd719c11	-0.058986727
8	0xbc9bc411	-0.01901439
9	0xb97a54f9	-0.00023873513
10	0xbd729ab1	-0.059229556
11	0x3d3874fd	0.045033444
12	0xbd4bca80	-0.049753666
13	0x3d134384	0.03595306
14	0x3d1f7310	0.03892809
15	0xbcb866c3	-0.022509938
16	0xbcad9dca	-0.021193404
17	0x3d72a65f	0.059240695
18	0xbc8f705f	-0.017509637
19	0xbd2fab4d	-0.042887975

fc.weight f4 [10, 320]
0	0x3b96932a	0.00459518
1	0xbc81c2c8	-0.01583995
2	0xbce1ab29	-0.027547436
3	0x3d36ef5a	0.044661857
4	0x3c55de45	0.0130534815
5	0xbba41e6f	-0.005008511
6	0xbdfbe49b	-0.122994624
7	0xbdb2dfa0	-0.08734059
8	0xbcf44e38	-0.029822454
9	0xbd2399dc	-0.039941654
10	0xbd0ff8d1	-0.0351494
11	0xbdae508f	-0.08511459
12	0xbbf9bf38	-0.007621672
13	0xbce6f937	-0.028195007
14	0xbd41ac0f	-0.04728323
15	0x3d452373	0.04812951
16	0xbc9239ab	-0.017849764
17	0x3bd3d24b	0.006464278
18	0xbd82022f	-0.06348073
19	0x3ce657c0	0.028118014
20	0x3c60a7e9	0.013711908
21	0x3d868c5e	0.06569742
22	0x3cf45f52	0.029830609
23	0x3c87fad2	0.016599093
24	0x3d527ad6	0.051386677
25	0x3d924465	0.071419515
26	0x3d05f3de	0.032703273
27	0x3ca2d839	0.019878494
28	0x3d59b4ac	0.053150818
29	0xbc9f4ef9	-0.019446837
30	0xbe11cf37	-0.14239202
31	0xbdc4d0b2	-0.09610118
32	0x3d8012eb	0.06253608
33	0x3cc79b01	0.024365904
34	0x3d8dc93f	0.0692315
35	0xbd511d5b	-0.051053386
36	0x3d98bb4d	0.074576
37	0xba7ae965	-0.00095715217
38	0x39fcea0c	0.00048239564
39	0xbd3a47b6	-0.045478545
40	0xbd657ec4	-0.056029096
41	0xbd89e284	-0.067326576
42	0x3b198bb5	0.002342922
43	0xbd28b22a	-0.041185535
44	0xbc1eee58	-0.00970038
45	0xbbe3a80e	-0.006947524
46	0x3cad95da	0.021189619
47	0x3cd33cc6	0.025785815
48	0x3d011660	0.03151548
49	0x3d8706fb	0.06593128
50	0x3dd8acff	0.105798714
51	0x3dd698c2	0.10478355
52	0xbd970bed	-0.073753215
53	0x3d9923a4	0.07477501
54	0xbcc21484	-0.023691423
55	0xbcd37739	-0.025813686
56	0x3c94d21b	0.018166592
57	0xbbf06376	-0.0073360754
58	0xbe0f22b6	-0.13978085
59	0xbd73aa47	-0.05948856
60	0x3dcc8dd5	0.0998799
61	0x3c60fa7c	0.013731595
62	0x3d1dc880	0.03852129
63	0xbca4619e	-0.020066079
64	0xbcc1c2da	-0.023652483
65	0x3c2485b9	0.010041648
66	0x3cf4e002	0.029891971
67	0xbbc8b51e	-0.0061251065
68	0xbd706bc9	-0.058696542
69	0xbdc35388	-0.09537417
70	0x3c9834ab	0.018579802
71	0x3d53fbac	0.051753685
72	0xbd038b2b	-0.032115143
73	0x3ad74fe2	0.0016427005
74	0xbb5c7c41	-0.0033643397
75	0x3da6c97f	0.08143901
76	0xbcb00ae7	-0.021489574
77	0x3e2d0f47	0.16900359
78	0x3de4256e	0.11139952
79	0xbd851979	-0.06498999
80	0x3cdcd4b5	0.026956895
81	0x399c2e87	0.00029789304
82	0x3cbc514f	0.02298799
83	0xbd493b9d	-0.049129117
84	0x3d3b1d84	0.045682445
85	0xba62ab63	-0.00086467544
86	0xbc3f4a9c	-0.011675503
87	0x3d1356a0	0.035971284
88	0xbdaca321	-0.08429552
89	0xbd7d5329	-0.061846886
90	0xbc59d0d5	-0.013294418
91	0x3d7e5dcc	0.06210117
92	0xbdb29c89	-0.08721263
93	0x3b3a6fbd	0.002844795
94	0x3bf4d6fe	0.007471918
95	0xbc844727	-0.01614721
96	0xbcaebe7c	-0.021331064
97	0xbd3c7d8c	-0.04601817
98	0x3b83803d	0.00401309
99	0xbc993682	-0.01870275
100	0xbd2e91a5	-0.042619366
101	0xbc3f29cf	-0.011667683
102	0xbd482a60	-0.048868537
103	0xbb1e93f2	-0.002419707
104	0x3c43a2f2	0.011940705
105	0xbc7ad0d0	-0.015308574
106	0xbc2f6500	-0.010705233
107	0x3d01a7dc	0.031654224
108	0xbd040b80	-0.03223753
109	0xbd403aaa	-0.046930946
110	0xbdb26d49	-0.08712251
111	0xbb97255a	-0.004612607
112	0xbd49bd2e	-0.04925268
113	0xbd5b7452	-0.05357773
114	0x3bda9518	0.0066706054
115	0xbcd2eee8	-0.025748685
116	0x3d26ee8c	0.04075484
117	0x3d399f31	0.045317832
118	0x3d80b86a	0.06285174
119	0x3d35a001	0.044342045
120	0x3dab73ee	0.08371721
121	0xbcabc9b1	-0.020970197
122	0x3db48c9c	0.088158816
123	0xbcdc2589	-0.026873367
124	0x3ddde139	0.108339734
125	0xbdbf3938	-0.093370855
126	0xbd95b4a2	-0.073098436
127	0xbca79947	-0.02045883
128	0xbc44d8d3	-0.012014586
129	0x3d805bd4	0.06267515
130	0x3d9ee8e1	0.07759262
131	0xbc1f73b7	-0.009732178
132	0xbd2e53eb	-0.0425605
133	0x3c79d0e6	0.015247559
134	0x3bb74e56	0.005594055
135	0x3c3ed7b6	0.011648109
136	0x3ba6b42c	0.005087396
137	0xbc3657b6	-0.01112931
138	0x3d131559	0.03590903
139	0xbe26e890	-0.16299653
140	0x3d15e0df	0.036591407
141	0xbca8a861	-0.020588102
142	0x3c294941	0.0103324065
143	0xbdafed0b	-0.08590134
144	0xbb040623	-0.002014526
145	0xbd2fcb48	-0.042918473
146	0xbdab0c6e	-0.0835198
147	0xbcae11b6	-0.02124868
148	0x3b5f199d	0.0034042366
149	0xbd62a0c1	-0.055329088
150	0x3cee2f31	0.029075237
151	0x3d89e812	0.06733717
152	0x3c03b72e	0.008039279
153	0xbd9329a0	-0.07185674
154	0x3d01aa31	0.031656448
155	0x3e015768	0.12630999
156	0xbd624493	-0.05524118
157	0x3cd77ec0	0.026305556
158	0x3d8d544d	0.06900845
159	0x3d896875	0.06709377
160	0x3cf73d14	0.030180492
161	0xbb58adc6	-0.0033062561
162	0x3da56c7c	0.080773324
163	0x3dc0af23	0.09408405
164	0xbd278192	-0.040895052
165	0x3a25962c	0.0006316628
166	0xbc6154c3	-0.013753119
167	0x3cb213e4	0.021738
168	0xbc5f5fe4	-0.013633702
169	0xbc90c6fa	-0.017673004
170	0xbdd85aa9	-0.10564167
171	0x3d077522	0.03307069
172	0x3dddaca5	0.10823945
173	0xbd442049	-0.047882352
174	0xbd3c5b90	-0.04598576
175	0xbc8d4bd7	-0.017248077
176	0xbcfee501	-0.031115057
177	0xbc8a6792	-0.01689509
178	0xbbf454e9	-0.007456411
179	0x3d2402d7	0.04004177
180	0xbdfb0731	-0.12257231
181	0xbd596a45	-0.053079862
182	0xbd523585	-0.05132057
183	0xbcf778aa	-0.030208904
184	0xbd45edc2	-0.048322447
185	0xbccf9d95	-0.025343696
186	0xbde2908a	-0.11062725
187	0xbdec6e09	-0.11544425
188	0xbcda0c00	-0.02661705
189	0x3d3116f7	0.04323479
190	0xbd6675a8	-0.05626455
191	0x3d36607d	0.044525612
192	0xbcfe3633	-0.031031704
193	0x3d6d03e2	0.05786503
194	0x3c6aba8b	0.014326702
195	0xbc3b9513	-0.011449116
196	0x3c5a80c4	0.013336364
197	0x3d301ad6	0.042994343
198	0x3d0078c0	0.031365156
199	0xbd9c813f	-0.07641839
200	0x3e001d64	0.12511212
201	0x3cdb03e6	0.026735257
202	0xbde67f1b	-0.11254712
203	0x3d5ba663	0.053625476
204	0x3d8b1e8b	0.06792935
205	0x3c9a816c	0.018860541
206	0xbce1fc26	-0.027586054
207	0xbab81d1e	-0.0014046764
208	0x3d25852d	0.04041021
209	0x3c48bb97	0.012251756
210	0x3d634a6c	0.055490896
211	0x3cb90b21	0.022588314
212	0xbcdb0d8b	-0.026739856
213	0xbd874922	-0.06605746
214	0xbd65860e	-0.056036048
215	0xbcf12b9e	-0.029439744
216	0xbe02a25c	-0.12757248
217	0xbd839846	-0.06425528
218	0xbc885ee4	-0.01664681
219	0x3da48ebc	0.08035037
220	0xbd2e52f8	-0.042559594
221	0xbc478d55	-0.012179692
222	0x3d09960d	0.033590365
223	0x3d932ec9	0.07186658
224	0x3ce8209a	0.028335858
225	0x3db74579	0.08948798
226	0xbd032cfc	-0.032025322
227	0xbcf579c3	-0.029965287
228	0x3c7fc0b7	0.015609912
229	0xbd956db5	-0.072963156
230	0xbccd494e	-0.025059368
231	0xbdcdd2f7	-0.10050004
232	0xbe01467e	-0.12624547
233	0xbd0aecab	-0.03391711
234	0xbcc1c00f	-0.023651151
235	0xbdcef168	-0.10104638
236	0xbdf1b854	-0.11802736
237	0xbd5f56b6	-0.054526053
238	0x3c413d01	0.01179433
239	0x3da35d2d	0.07976756
240	0xbc073717	-0.008252881
241	0xbd7df031	-0.061996643
242	0x3c3ec83c	0.011644419
243	0xbdac7ab7	-0.084218435
244	0xbcffa54b	-0.031206748
245	0xbda15e7e	-0.07879351
246	0x3c983f7e	0.018584963
247	0xbc8bd281	-0.01706815
248	0xbb2bba89	-0.0026203713
249	0xbd5f5f7a	-0.054534413
250	0xbcbb337e	-0.022851702
251	0x3dc8d03b	0.09805342
252	0x3def0daf	0.11672532
253	0x3d956f96	0.07296674
254	0x3d2646b2	0.040594764
255	0x3c7c53d0	0.015400842

fc.bias f4 [10]
0	0xbc05ed52	-0.008174257
1	0x3ce2b279	0.027672993
2	0xbc077d64	-0.008269642
3	0xbc915ab3	-0.017743444
4	0x3c7efc33	0.015563059
5	0x3c9133f4	0.017724968
6	0x3c72eb9f	0.014826684
7	0x3bcf2681	0.0063217287
8	0xbc94bc8b	-0.01815631
9	0xbd3a5163	-0.045487773
